…
      "execution_count": null,
      "metadata": {
        "colab": {
          "base_uri": "https://localhost:8080/"
        },
        "id": "EsSgs1I4WHQ2",
        "outputId": "271d2165-98e7-4ea4-fee9-73a75b74fd08"
      },
      "outputs": [
        {
          "name": "stdout",
          "output_type": "stream",
          "text": [
            "----------------------------------------------------------------\n",
            "        Layer (type)               Output Shape         Param #\n",
            "================================================================\n",
            "            Conv2d-1           [-1, 64, 55, 55]          23,296\n",
            "              ReLU-2           [-1, 64, 55, 55]               0\n",
            "         MaxPool2d-3           [-1, 64, 27, 27]               0\n",
            "            Conv2d-4          [-1, 192, 27, 27]         307,392\n",
            "              ReLU-5          [-1, 192, 27, 27]               0\n",
            "         MaxPool2d-6          [-1, 192, 13, 13]               0\n",
            "            Conv2d-7          [-1, 384, 13, 13]         663,936\n",
            "              ReLU-8          [-1, 384, 13, 13]               0\n",
            "            Conv2d-9          [-1, 256, 13, 13]         884,992\n",
            "             ReLU-10          [-1, 256, 13, 13]               0\n",
            "           Conv2d-11          [-1, 256, 13, 13]         590,080\n",
            "             ReLU-12          [-1, 256, 13, 13]               0\n",
            "        MaxPool2d-13            [-1, 256, 6, 6]               0\n",
            "AdaptiveAvgPool2d-14            [-1, 256, 6, 6]               0\n",
            "          Dropout-15                 [-1, 9216]               0\n",
            "           Linear-16                 [-1, 4096]      37,752,832\n",
            "             ReLU-17                 [-1, 4096]               0\n",
            "          Dropout-18                 [-1, 4096]               0\n",
            "           Linear-19                 [-1, 4096]      16,781,312\n",
            "             ReLU-20                 [-1, 4096]               0\n",
            "           Linear-21                 [-1, 1000]       4,097,000\n",
            "================================================================\n",
            "Total params: 61,100,840\n",
            "Trainable params: 61,100,840\n",
            "Non-trainable params: 0\n",
            "----------------------------------------------------------------\n",
            "Input size (MB): 0.57\n",
            "Forward/backward pass size (MB): 8.38\n",
            "Params size (MB): 233.08\n",
…
